…
 Plotting the data...

image saved to file
image saved to file
image saved to file
image saved to file
image saved to file
image saved to file
image saved to file
image saved to file

 Loading images...


 Loading labels...


 Splitting the data into training and test...


 Implementing tensorflow input data pipeline...


 Training the model...

Object Detection
Model: "sequential"
_________________________________________________________________
 Layer (type)                Output Shape              Param #   
=================================================================
 batch_normalization (BatchN  (None, 72, 60, 60, 3)    12        
 ormalization)                                                   
                                                                 
 conv_lstm2d (ConvLSTM2D)    (None, 72, 58, 58, 16)    11008     
                                                                 
 max_pooling3d (MaxPooling3D  (None, 72, 29, 29, 16)   0         
 )                                                               
                                                                 
 time_distributed (TimeDistr  (None, 72, 29, 29, 16)   0         
 ibuted)                                                         
                                                                 
 conv_lstm2d_1 (ConvLSTM2D)  (None, 72, 27, 27, 16)    18496     
                                                                 
 batch_normalization_1 (Batc  (None, 72, 27, 27, 16)   64        
 hNormalization)                                                 
                                                                 
 max_pooling3d_1 (MaxPooling  (None, 72, 14, 14, 16)   0         
 3D)                                                             
                                                                 
 time_distributed_1 (TimeDis  (None, 72, 14, 14, 16)   0         
 tributed)                                                       
                                                                 
 conv_lstm2d_2 (ConvLSTM2D)  (None, 72, 12, 12, 16)    18496     
                                                                 
 batch_normalization_2 (Batc  (None, 72, 12, 12, 16)   64        
 hNormalization)                                                 
                                                                 
 max_pooling3d_2 (MaxPooling  (None, 72, 6, 6, 16)     0         
 3D)                                                             
                                                                 
 time_distributed_2 (TimeDis  (None, 72, 6, 6, 16)     0         
 tributed)                                                       
                                                                 
 conv_lstm2d_3 (ConvLSTM2D)  (None, 72, 4, 4, 16)      18496     
                                                                 
 batch_normalization_3 (Batc  (None, 72, 4, 4, 16)     64        
 hNormalization)                                                 
                                                                 
 max_pooling3d_3 (MaxPooling  (None, 72, 2, 2, 16)     0         
 3D)                                                             
                                                                 
 time_distributed_3 (TimeDis  (None, 72, 2, 2, 16)     0         
 tributed)                                                       
                                                                 
 flatten (Flatten)           (None, 4608)              0         
                                                                 
 dense (Dense)               (None, 4096)              18878464  
                                                                 
 dense_1 (Dense)             (None, 1)                 4097      
                                                                 
=================================================================
Total params: 18,949,261
Trainable params: 18,949,159
Non-trainable params: 102
_________________________________________________________________
Epoch 1/5
Done!
